…
ry_size': 10000, 'uncert_metric': 'noisytune', 'metric_k': 6, 'noise_lambda': 0.2, 'debug': False}
 2023-10-01 21:14:40,115 - INFO - [1] Select a CIL method (finetune)
 2023-10-01 21:14:40,116 - INFO - Select uncertainty measure approach (noisytune)
 2023-10-01 21:14:41,354 - INFO - CIL Scenario: finetune
 2023-10-01 21:14:41,354 - INFO - [2] Incrementally training 1 tasks
 2023-10-01 21:14:41,355 - INFO - Audio frontend param:
{'sample_rate': 44100, 'window_size': 1024, 'hop_size': 320, 'mel_bins': 64, 'fmin': 50, 'fmax': 14000}

 2023-10-01 21:14:41,356 - INFO - Model:
BCResNet_Mod(
  (conv1): Conv2d(1, 80, kernel_size=(5, 5), stride=(2, 2), padding=(2, 2))
  (block1_1): TransitionBlock(
    (freq_dw_conv): Conv2d(40, 40, kernel_size=(3, 1), stride=(1, 1), padding=(1, 0), groups=40, bias=False)
    (ssn): SubSpectralNorm(
      (bn): BatchNorm2d(160, eps=1e-05, momentum=0.1, affine=True, track_running_stats=True)
    )
    (temp_dw_conv): Conv2d(40, 40, kernel_size=(1, 3), stride=(1, 1), padding=(0, 1), groups=40, bias=False)
    (bn1): BatchNorm2d(40, eps=1e-05, momentum=0.1, affine=True, track_running_stats=True)
    (bn2): BatchNorm2d(40, eps=1e-05, momentum=0.1, affine=True, track_running_stats=True)
    (relu): ReLU(inplace=True)
    (channel_drop): Dropout2d(p=0.1, inplace=False)
    (swish): SiLU()
    (conv1x1_1): Conv2d(80, 40, kernel_size=(1, 1), stride=(1, 1), bias=False)
    (conv1x1_2): Conv2d(40, 40, kernel_size=(1, 1), stride=(1, 1), bias=False)
  )
  (block1_2): BroadcastedBlock(
    (freq_dw_conv): Conv2d(40, 40, kernel_size=(3, 1), stride=(1, 1), padding=(1, 0), groups=40, bias=False)
    (ssn1): SubSpectralNorm(
      (bn): BatchNorm2d(160, eps=1e-05, momentum=0.1, affine=True, track_running_stats=True)
    )
    (temp_dw_conv): Conv2d(40, 40, kernel_size=(1, 3), stride=(1, 1), padding=(0, 1), groups=40, bias=False)
    (bn): BatchNorm2d(40, eps=1e-05, momentum=0.1, affine=True, track_running_stats=True)
    (relu): ReLU(inplace=True)
    (channel_drop): Dropout2d(p=0.1, inplace=False)
    (swish): SiLU()
    (conv1x1): Conv2d(40, 40, kernel_size=(1, 1), stride=(1, 1), bias=False)
  )
  (block2_1): MaxPool2d(kernel_size=2, stride=2, padding=0, dilation=1, ceil_mode=False)
  (block3_1): TransitionBlock(
    (freq_dw_conv): Conv2d(60, 60, kernel_size=(3, 1), stride=(1, 1), padding=(1, 0), groups=60, bias=False)
    (ssn): SubSpectralNorm(
      (bn): BatchNorm2d(240, eps=1e-05, momentum=0.1, affine=True, track_running_stats=True)
    )
    (temp_dw_conv): Conv2d(60, 60, kernel_size=(1, 3), stride=(1, 1), padding=(0, 1), groups=60, bias=False)
    (bn1): BatchNorm2d(60, eps=1e-05, momentum=0.1, affine=True, track_running_stats=True)
    (bn2): BatchNorm2d(60, eps=1e-05, momentum=0.1, affine=True, track_running_stats=True)
    (relu): ReLU(inplace=True)
    (channel_drop): Dropout2d(p=0.1, inplace=False)
    (swish): SiLU()
    (conv1x1_1): Conv2d(40, 60, kernel_size=(1, 1), stride=(1, 1), bias=False)
    (conv1x1_2): Conv2d(60, 60, kernel_size=(1, 1), stride=(1, 1), bias=False)
  )
  (block3_2): BroadcastedBlock(
    (freq_dw_conv): Conv2d(60, 60, kernel_size=(3, 1), stride=(1, 1), padding=(1, 0), groups=60, bias=False)
    (ssn1): SubSpectralNorm(
      (bn): BatchNorm2d(240, eps=1e-05, momentum=0.1, affine=True, track_running_stats=True)
    )
    (temp_dw_conv): Conv2d(60, 60, kernel_size=(1, 3), stride=(1, 1), padding=(0, 1), groups=60, bias=False)
    (bn): BatchNorm2d(60, eps=1e-05, momentum=0.1, affine=True, track_running_stats=True)
    (relu): ReLU(inplace=True)
    (channel_drop): Dropout2d(p=0.1, inplace=False)
    (swish): SiLU()
    (conv1x1): Conv2d(60, 60, kernel_size=(1, 1), stride=(1, 1), bias=False)
  )
  (block4_1): MaxPool2d(kernel_size=2, stride=2, padding=0, dilation=1, ceil_mode=False)
  (block5_1): TransitionBlock(
    (freq_dw_conv): Conv2d(80, 80, kernel_size=(3, 1), stride=(1, 1), padding=(1, 0), groups=80, bias=False)
    (ssn): SubSpectralNorm(
      (bn): BatchNorm2d(320, eps=1e-05, momentum=0.1, affine=True, track_running_stats=True)
    )
    (temp_dw_conv): Conv2d(80, 80, kernel_size=(1, 3), stride=(1, 1), padding=(0, 1), groups=80, bias=False)
    (bn1): BatchNorm2d(80, eps=1e-05, momentum=0.1, affine=True, track_running_stats=True)
    (bn2): BatchNorm2d(80, eps=1e-05, momentum=0.1, affine=True, track_running_stats=True)
    (relu): ReLU(inplace=True)
    (channel_drop): Dropout2d(p=0.1, inplace=False)
    (swish): SiLU()
    (conv1x1_1): Conv2d(60, 80, kernel_size=(1, 1), stride=(1, 1), bias=False)
    (conv1x1_2): Conv2d(80, 80, kernel_size=(1, 1), stride=(1, 1), bias=False)
  )
  (block5_2): BroadcastedBlock(
    (freq_dw_conv): Conv2d(80, 80, kernel_size=(3, 1), stride=(1, 1), padding=(1, 0), groups=80, bias=False)
    (ssn1): SubSpectralNorm(
      (bn): BatchNorm2d(320, eps=1e-05, momentum=0.1, affine=True, track_running_stats=True)
    )
    (temp_dw_conv): Conv2d(80, 80, kernel_size=(1, 3), stride=(1, 1), padding=(0, 1), groups=80, bias=False)
    (bn): BatchNorm2d(80, eps=1e-05, momentum=0.1, affine=True, track_running_stats=True)
    (relu): ReLU(inplace=True)
    (channel_drop): Dropout2d(p=0.1, inplace=False)
    (swish): SiLU()
    (conv1x1): Conv2d(80, 80, kernel_size=(1, 1), stride=(1, 1), bias=False)
  )
  (block6_1): TransitionBlock(
    (freq_dw_conv): Conv2d(100, 100, kernel_size=(3, 1), stride=(1, 1), padding=(1, 0), groups=100, bias=False)
    (ssn): SubSpectralNorm(
      (bn): BatchNorm2d(400, eps=1e-05, momentum=0.1, affine=True, track_running_stats=True)
    )
    (temp_dw_conv): Conv2d(100, 100, kernel_size=(1, 3), stride=(1, 1), padding=(0, 1), groups=100, bias=False)
    (bn1): BatchNorm2d(100, eps=1e-05, momentum=0.1, affine=True, track_running_stats=True)
    (bn2): BatchNorm2d(100, eps=1e-05, momentum=0.1, affine=True, track_running_stats=True)
    (relu): ReLU(inplace=True)
    (channel_drop): Dropout2d(p=0.1, inplace=False)
    (swish): SiLU()
    (conv1x1_1): Conv2d(80, 100, kernel_size=(1, 1), stride=(1, 1), bias=False)
    (conv1x1_2): Conv2d(100, 100, kernel_size=(1, 1), stride=(1, 1), bias=False)
  )
  (block6_2): BroadcastedBlock(
    (freq_dw_conv): Conv2d(100, 100, kernel_size=(3, 1), stride=(1, 1), padding=(1, 0), groups=100, bias=False)
    (ssn1): SubSpectralNorm(
      (bn): BatchNorm2d(400, eps=1e-05, momentum=0.1, affine=True, track_running_stats=True)
    )
    (temp_dw_conv): Conv2d(100, 100, kernel_size=(1, 3), stride=(1, 1), padding=(0, 1), groups=100, bias=False)
    (bn): BatchNorm2d(100, eps=1e-05, momentum=0.1, affine=True, track_running_stats=True)
    (relu): ReLU(inplace=True)
    (channel_drop): Dropout2d(p=0.1, inplace=False)
    (swish): SiLU()
    (conv1x1): Conv2d(100, 100, kernel_size=(1, 1), stride=(1, 1), bias=False)
  )
  (block6_3): BroadcastedBlock(
    (freq_dw_conv): Conv2d(100, 100, kernel_size=(3, 1), stride=(1, 1), padding=(1, 0), groups=100, bias=False)
    (ssn1): SubSpectralNorm(
      (bn): BatchNorm2d(400, eps=1e-05, momentum=0.1, affine=True, track_running_stats=True)
    )
    (temp_dw_conv): Conv2d(100, 100, kernel_size=(1, 3), stride=(1, 1), padding=(0, 1), groups=100, bias=False)
    (bn): BatchNorm2d(100, eps=1e-05, momentum=0.1, affine=True, track_running_stats=True)
    (relu): ReLU(inplace=True)
    (channel_drop): Dropout2d(p=0.1, inplace=False)
    (swish): SiLU()
    (conv1x1): Conv2d(100, 100, kernel_size=(1, 1), stride=(1, 1), bias=False)
  )
  (block7_1): Conv2d(100, 50, kernel_size=(1, 1), stride=(1, 1))
  (block8_1): AdaptiveAvgPool2d(output_size=(1, 1))
  (frontend): Audio_Frontend(
    (spectrogram_extractor): Spectrogram(
      (stft): STFT(
        (conv_real): Conv1d(1, 513, kernel_size=(1024,), stride=(320,), bias=False)
        (conv_imag): Conv1d(1, 513, kernel_size=(1024,), stride=(320,), bias=False)
      )
    )
    (logmel_extractor): LogmelFilterBank()
    (spec_augmenter): SpecAugmentation(
      (time_dropper): DropStripes()
      (freq_dropper): DropStripes()
    )
    (bn0): BatchNorm2d(64, eps=1e-05, momentum=0.1, affine=True, track_running_stats=True)
  )
)

 2023-10-01 21:14:41,356 - INFO - Exp: disjoint | batch_size: 128 | learning_rate: 0.001 | dataset: ESC-50
 2023-10-01 21:14:41,357 - INFO - [2-1] Prepare a datalist for the current task
 2023-10-01 21:14:41,397 - INFO - [Train] Get datalist from ESC-50_train_disjoint_rand5_cls50_task0_1.json
 2023-10-01 21:14:41,405 - INFO - [Test ] Get datalist from ESC-50_test_rand5_cls50_task0_1.json
…
